data.pth (torch, 11223 bytes, 6 tensors)

l1.weight f4 [8, 141]
00000000: 7a68 b7bf 57df ac40 18bc 053e 7e54 d940
00000010: d131 9cbf 04f4 533f f513 953f 37f4 b7bf
00000020: 635d 2540 1083 a140 2d14 2640 8793 553e
00000030: 4ce0 1cbe 5db7 863f 1c31 7e40 08f2 edbd
00000040: 0fd7 6640 318d a540 d1fe a3bf fff7 233c
00000050: 63c1 e03e e8ca 7340 6c00 2f40 d7e8 1c3f
00000060: 45e7 11be 0e47 b2bf 68c0 303f b738 fd3e
00000070: a269 2dbf 4479 c6bc f97d 9d3f b57c 2b40
00000080: dc81 6ebf 8200 09be 29aa 64bd c345 2140
00000090: cc4d fd3f e387 7540 4bed 3340 1d19 f53f
000000a0: 837d 3e3f 9658 2ebe 443c 0140 b2b8 253e
000000b0: 8d3b b4bf 9ae2 1a40 040a e33d 4b47 d43f
000000c0: 610e e03e b8be 2b40 6180 6740 df41 d23f
000000d0: fdff b3bf a213 3e40 d610 8140 623e b3bf
000000e0: dd79 1b3f 0db6 c83d 2a45 3b3f 52e2 5d40
000000f0: 62cf 3d40 11e6 97bf 8507 2a40 dcf9 453f
00000100: 78d0 2d40 7c75 b93f bf02 ae3f 5110 93be
00000110: 49c2 1e40 3ae3 cdbf 69a7 863f 756b 5840
00000120: 9117 2b40 6c06 2abe 63be 3e40 6765 2240
00000130: 77ef 6140 b71b 66bf 1fa1 ab3f 3029 ae3f
00000140: 227f 7b40 67fc 4340 ac5b 3140 4fc5 8ebf
00000150: 0671 4740 012e cc3f bea4 6140 3d28 e23f
00000160: 5633 ef3f 9cab e93e c43f ef3d 7e9e b4bf
00000170: ead5 64bf d33f 553d 6022 67bf 494f 823f
00000180: db4a cc40 7b51 0840 c665 283f a661 5fbe
00000190: f39c 2840 1c41 69be 60fa 1640 2341 b440
000001a0: 9644 2540 c3b2 1b40 78eb 1d40 ab3d 7b40
000001b0: 0e7d 6240 a157 1640 46bc 6640 3839 e4bc
000001c0: 8a78 2840 0969 8a40 52a8 8e3d 1cb7 80bf
000001d0: 7731 c7be 545c b4bf 87e0 8cbe 99a5 c03e
000001e0: 2696 0f3c bd37 2e40 054d a7bf 643b 7b3f
000001f0: 8104 0440 6340 0840 8956 8940 3c3c c63f
00000200: d91d 2440 50fe e93f 18a0 4a40 0b49 193f
00000210: 0db7 8140 cc93 2140 678b 3ebd db9a b4bf
00000220: 1c7c 88bf f1a2 513f fb86 d03f be07 9d40
00000230: 4a25 10be 0eb7 7140 fc1a dc3f 4024 a73e
00000240: b3ad 623f 05dc 0840 007c 95be f638 a3be
00000250: f53b 6d40 c832 dc3f 66c0 7540 164e ed3f
00000260: 305e a63e b6c6 643f 573f 373f c1f1 8840
00000270: 7a7e 773f 25ea 283f db80 16c0 b40d 1840
00000280: f9cb 0bbf 3203 863e 44c3 cdbd 2f70 3340
00000290: 88e0 9c40 228f a6bf 2974 3c3d 01d9 20bf
000002a0: 151a f1be 7c3c 70bf 7e77 1dbf 3aa3 9e3d
000002b0: fca9 8040 566a 1e3f 1ddf ae3e 88de 1e40
000002c0: 1838 e53f 29cf 5ebf 8ce5 4040 bce6 67bf
000002d0: 6997 b33f 02c1 1840 718d 6d40 0602 4040
000002e0: 4611 7d3f 40af 1d40 046e 9840 0671 0740
000002f0: ab29 95bf 4638 ed3e 89ba 95bf ee1a 3c40
00000300: 7395 94bf 2f8f 92bf dacb 1f40 a184 8c40
00000310: 41f8 94bf 0b0f 1b3e 47f3 2840 f686 e13f
00000320: 7401 4b40 a8e1 9240 67d9 913f 2199 5e40
00000330: 3a13 663f 66d4 9e3e d9d3 2340 5459 373f
00000340: db2c 0340 6ef0 e03f 6c2f b440 ea74 acbe
00000350: 2741 8440 8426 e43f d0c5 3440 f726 0540
00000360: 2959 f03f 335b 5a40 6544 003f 50a3 403f
00000370: 0a01 b53e 3978 8840 e130 0140 6615 9b40
00000380: 7a2a f03f 8bdb 1340 1ab4 cabf 4b84 5a40
00000390: 0fc5 b03f fced ac3f b852 183f 698b 4840
000003a0: 0f76 2040 8c98 fb3e 27a3 4940 0ec3 103f
000003b0: 178c 203f 9ff8 37be a748 6b40 d9e3 9d3f
000003c0: 5223 87bf 2061 c43e ac5e ecbe 3b54 9640
000003d0: e592 fd3f 0683 f03f 379d f53f 0a9b 3a40
000003e0: 8539 8a40 2726 5340 2dd4 0dbf cb61 5a40
000003f0: 246c 17bf 71e8 8440 576d 9140 5e59 4940
-1.4328759 5.402263 0.13060033 6.791564 -1.2202703 0.82794213 1.1646715 -1.4371403
2.5838249 5.047249 2.5949814 0.20857058 -0.15319937 1.0524708 3.9717474 -0.116184294
3.6068761 5.1734853 -1.2812139 0.010007857 0.43897542 3.8092594 2.7344007 0.61292785
-0.14248379 -1.3927934 0.6904359 0.49457332 -0.6773931 -0.024227746 1.2304069 2.6794865
-0.931669 -0.133791 -0.05582634 2.519883 1.9789367 3.8364189 2.8113582 1.9148289
0.74410266 -0.1702598 2.0193033 0.16183737 -1.4080673 2.4200807 0.11085895 1.6584257
0.4376097 2.6835155 3.6172106 1.6426352 -1.4062496 2.9699483 4.033305 -1.4003413
0.60732824 0.098003484 0.7315241 3.4669385 2.9657826 -1.1867086 2.656709 0.7733438
2.715849 1.4488978 1.3594588 -0.28723386 2.4806082 -1.6084969 1.051984 3.3815587
2.6733134 -0.16604012 2.9803703 2.537439 3.5302408 -0.8988604 1.3408545 1.360632
3.9296346 3.0622804 2.7712202 -1.1153964 3.1162734 1.5951539 3.52568 1.766853
1.8687541 0.4563874 0.11682084 -1.4110868 -0.89388907 0.05206282 -0.9028683 1.0180446
6.3841376 2.1299732 0.65780294 -0.21814594 2.6345794 -0.22778744 2.3590317 5.6329513
2.5823112 2.4327857 2.4674969 3.925639 3.5388827 2.3490984 3.6052413 -0.027859315
2.6323571 4.3253217 0.06965698 -1.005588 -0.38904926 -1.4090676 -0.2751505 0.3762634
0.0087638255 2.722152 -1.307038 0.981375 2.062775 2.1289299 4.2918134 1.5487132
2.5643218 1.8280735 3.1660213 0.5987708 4.053595 2.5246458 -0.046519663 -1.4109758
-1.0662875 0.81889254 1.6291193 4.907195 -0.14076725 3.7767978 1.7195735 0.32644844
0.88546294 2.138429 -0.29196167 -0.31879395 3.7067845 1.7202997 3.839868 1.8539455
0.32493734 0.8936571 0.71581024 4.279511 0.9667736 0.65982276 -2.3516147 2.3758364
-0.5460811 0.26174313 -0.100470096 2.8037221 4.9024086 -1.3012431 0.046009216 -0.6283112
-0.47090212 -0.9384229 -0.61510456 0.07745977 4.02075 0.61881006 0.34154597 2.4823322
1.7907743 -0.8703485 3.0140104 -0.9058645 1.4030582 2.3867803 3.711758 3.0001235
0.9885448 2.4638214 4.7634296 2.1162734 -1.1653341 0.46331996 -1.1697551 2.9391437
-1.1608108 -1.1449946 2.496817 4.39119 -1.1638261 0.15142457 2.6398485 1.7619312
3.1719637 4.590046 1.1394471 3.4780962 0.8987309 0.31021422 2.5598052 0.7162068
2.0496128 1.7573373 5.630789 -0.33682948 4.132953 1.7824254 2.8245735 2.0805032
1.877721 3.4118164 0.5010436 0.75249195 0.35352355 4.2646756 2.0186083 4.846362
1.8762963 2.3102748 -1.5836213 3.4143245 1.3810138 1.3510127 0.5950122 3.133509
2.5072057 0.49139822 3.150583 0.5654763 0.6271376 -0.17965935 3.6763093 1.2335159
-1.0557654 0.3835535 -0.4616598 4.697782 1.9810454 1.8789985 1.9188603 2.9157128
4.3195214 3.2992036 -0.5540188 3.4122188 -0.59149384 4.153374 4.544597 3.1460795

l1.bias f4 [8]
00000000: 1082 753f d5b1 e53e b5cf 593f d66c db3e
00000010: aead 603e a213 18bf cf77 553f 8e0d 9a3f
0.95901585 0.44862238 0.8508256 0.42856473 0.21941254 -0.5940496 0.8338594 1.2035387

l2.weight f4 [8, 8]
00000000: f6cd 07c0 baff 183f c45c ef3f 5b00 7e3f
00000010: 0d31 ad3f 94d5 85be 5b25 a93f ec48 973f
00000020: 8dd4 bebf faaf e53f b9d8 8fbf 35e7 6b3f
00000030: 94e3 3240 dfa4 5140 1863 0f40 be4f 453e
00000040: 1022 983f f5a0 1340 c354 53bf 5870 59be
00000050: d475 d8be be8d afbf 640e 0140 c384 0540
00000060: 7587 58bf 409b e7bf 00ec 90bd e26d 0b40
00000070: 5de3 e63f 09d3 e23f cddd 723d 052c 1e3f
00000080: 8890 db3f 1209 86bf 6e68 f83f 59a8 6c3e
00000090: 50b0 d83f 72a5 4cbf a650 dc3f c69c 043f
000000a0: 29e8 0c40 916e 0b40 10bd c93f ec2e 6c3f
000000b0: 22e9 96be e93e a93f 7b11 c8bf a12d 59be
000000c0: ba5f 5abf 2745 2440 e71e 4dbf d17e d8bf
000000d0: e14f 1e3f a90b 3a3f f518 723f a8b4 1e3f
000000e0: 8745 41bf 8c78 7e3f e58d c9bf e463 0240
000000f0: b41d f5bf cc28 0340 3987 113f 2421 b33f
-2.1219459 0.5976521 1.8700185 0.9921929 1.3530594 -0.2613951 1.3214525 1.1819129
-1.4908615 1.7944329 -1.1238014 0.9214967 2.7951403 3.275688 2.2404232 0.192687
1.1885395 2.306699 -0.8255121 -0.21234262 -0.42277396 -1.3715131 2.0165033 2.0862281
-0.8458169 -1.8094254 -0.070762634 2.1785817 1.8038136 1.7720653 0.059293557 0.6178592
1.7153482 -1.0471518 1.940687 0.23111095 1.6928806 -0.7993995 1.7212112 0.5180172
2.20167 2.1786234 1.5760822 0.922591 -0.2947474 1.3222324 -1.5630335 -0.21208812
-0.8530232 2.5667207 -0.8012528 -1.6913701 0.61840636 0.7267404 0.9456933 0.6199441
-0.75496715 0.9940269 -1.5746428 2.0373468 -1.914969 2.049365 0.5684696 1.3994489

l2.bias f4 [8]
00000000: def0 153d ef2a a2bf 1104 863e 980d 383b
00000010: aed4 f33e 59fd 113f 2077 d1bd 1809 6ebf
0.036606662 -1.2669352 0.26174977 0.0028084274 0.476232 0.570272 -0.102277994 -0.92982626

l3.weight f4 [56, 8]
00000000: 88ee 1d3e 98f9 56bf 3e2e adc0 ee87 bdbf
00000010: fa9d b5bf ea6d 54bf d2eb 05bf 9ba9 8ac0
00000020: 9feb 4940 3dfa 09c0 3287 12c0 adc7 dcc0
00000030: af4c 8fc0 af2d 833e 2fdd 07c1 ae09 1d3e
00000040: dd86 69c0 7ab9 3ac0 58ab d93e 612c 1fc1
00000050: 6382 5fc0 e886 c0bf 6495 713d eb3d c23f
00000060: 53de 3440 41f3 b3c0 9f9b 20c0 1784 e23e
00000070: 3e16 d8be 7905 0ac0 00e0 8cbe c846 cdc0
00000080: 1267 dfbe ba6d ddbe c117 47c0 172f d4bf
00000090: a70b 58c0 1728 cfbf 5d2a 71be 27c7 03c0
000000a0: 056d 70c0 0e8d b0be a324 3ac0 ad00 20c1
000000b0: 186a d9bf 9068 a63f e8fb a0c0 560c 87c0
000000c0: 2f9f 1cc1 af54 63c0 726e 4d3f 4200 a4c0
000000d0: c2a2 ae3e 76ab a4c0 baad 51c1 6098 70bf
000000e0: 817d 843e f309 05bd 4afc eebf 7ed1 89c0
000000f0: 31c3 3ec0 ebc6 02c0 9fa1 84be 7cc2 70c0
00000100: ecb5 86c0 e09e 8ebf bc9d c4c0 dfd4 b9bf
00000110: 1996 e9bf 5483 433f b5ff 633e f1a9 2bbf
00000120: 2951 143f 4f26 2dc0 3114 91c0 e31c a5c0
00000130: 2642 29c0 cfd9 913f 1e7c fc3e 5a10 f8bf
00000140: fd7b adc0 8ccc 7abe 123a 60c0 bae9 5abd
00000150: 24c5 37c0 3bc5 95bf 151d dac0 d597 b23f
00000160: 5e7c 8b3f e4e2 eebf 862f c7c0 6f49 1ec0
00000170: 2fe0 183e cac8 60bf 9e36 04c0 d870 5ec0
00000180: cd2b 673e c9df 1bc0 0d21 b4c0 c04c b2bf
00000190: 1fdc 49bf ba5e 3d3d ed5f 9cbf b8c7 14c0
000001a0: 1707 803f 1a74 48c0 2139 83bf 6bce 7abf
000001b0: 4529 3abf 1ec3 82c0 6724 2fc1 21ac 24c0
000001c0: 7d32 7abf ce3a 37bf babe 62c0 86bf 1fbf
000001d0: e023 57c0 a19f e8bf 26e6 80c0 6787 a13e
000001e0: 720a babf 0c58 62be 7891 2fc0 a09e 82bf
000001f0: 0777 d6bf cb0c a5c0 8b03 27bf dd4c a1bf
00000200: 0773 f13f 30ca 9fc0 1699 4bc0 2e33 493e
00000210: 35ed cebf b33e 05c0 7058 d1c0 8b09 9f3f
00000220: e1ef 56bf 2e70 553c 087c 85c0 448d d1be
00000230: 1b7b 08c0 9e40 84c0 0bf5 5cc0 979a 0dbf
00000240: f7da 12bf 2d1e 043e 4f7b 5ac0 81eb 0bc0
00000250: 8143 e6bf 8343 26c0 f296 ae3e 7f0d 9ac0
00000260: bdde b63e 60eb d0bf a40c 01bf 4711 76c0
00000270: 408d cfbf 3b83 2cc0 3df2 803f e632 b5c0
00000280: 441d ebbe 9fc1 5dbe 6ced a5c0 6e26 9bbf
00000290: 5e8f 00be 6799 21c0 9dcb 54c0 9af7 bdc0
000002a0: 4053 1bc0 b7d2 833e 8852 cdc0 7d6b 97be
000002b0: e79a 73be d633 78bf 2aa2 b9bf cdc7 b4c0
000002c0: 6614 cbbf 5483 b9bf 829c d2bf 5f52 aebe
000002d0: ed26 9ac0 0890 03bf f9e8 ebbf 4980 1dbe
000002e0: 670a 35be e63e 69c0 3fa0 023e dd89 9ec0
000002f0: 8650 74c0 2b80 55c0 c766 cf3f d05e 0440
00000300: 5a66 bcbe ccbd f0bd d74d bcc0 fabd d2be
00000310: 851e 9abf 82a4 e4bf f17e 92c0 947f 4fc0
00000320: b33d 3d3f 442c 54c0 06ca 7dbf f306 c1be
00000330: 2e04 5bbf dee0 e7c0 96e6 13c0 8e32 ddbf
00000340: 41b9 1540 73cc 2fc0 e319 6ec0 4396 65c0
00000350: c577 9abf 8cf2 9fbf 6281 833f 5558 86c0
00000360: 70e6 213e bfaa adbf 3654 bcbf 459e 75c0
00000370: c3eb 16c0 959a 30bf 59e7 813f 7d44 b6c0
00000380: d78a 7abf 629d ccbe 28e3 23c0 26ec 48c0
00000390: ee7e 3bc0 6f40 e0be 39e3 77be 2c9c 3ac0
000003a0: 9819 0140 0257 54c0 2caf babf 9941 15c1
000003b0: 7d26 ffbf 0200 1dbf c220 1140 d824 86c0
000003c0: 32fd bdbd 8403 dcbf a150 cfbe bd8a 17c0
000003d0: 6ed0 82c0 f9a1 dbbf b285 6bbe 2a78 b0bf
000003e0: 37bd 7dbf 064c 82bf 8f67 0fc0 cf53 3abe
000003f0: 6c00 aac0 4aec ebbf 3de5 8cbf 2100 2b3e
0.15423024 -0.839746 -5.411895 -1.4807107 -1.4188836 -0.82980216 -0.5231296 -4.333204
3.1550062 -2.1558983 -2.2895017 -6.8993745 -4.478111 0.2562079 -8.4915 0.15335724
-3.6488564 -2.9175706 0.42513537 -9.948335 -3.4923332 -1.504117 0.05898036 1.5175146
2.8260696 -5.623444 -2.5094984 0.44241402 -0.4220447 -2.156584 -0.27514648 -6.4148903
-0.43633324 -0.43247777 -3.1108248 -1.6576871 -3.3757112 -1.618411 -0.23551317 -2.0590303
-3.756654 -0.34482616 -2.9084861 -10.000165 -1.6985502 1.300066 -5.0307503 -4.220256
-9.788863 -3.5520437 0.8024665 -5.1250315 0.3410855 -5.1459303 -13.104914 -0.93982506
0.25877002 -0.03248019 -1.8670743 -4.306823 -2.9806635 -2.043391 -0.25904557 -3.7618704
-4.2097073 -1.1142235 -6.1442547 -1.4518088 -1.8248931 0.76372266 0.22265513 -0.67056185
0.5793634 -2.7054632 -4.533715 -5.159776 -2.6446624 1.1394595 0.49313444 -1.937999
-5.4213853 -0.24492091 -3.5035443 -0.053445555 -2.8714075 -1.1700815 -6.81605 1.3952585
1.0897329 -1.8662992 -6.224551 -2.473232 0.14929269 -0.8780638 -2.0658336 -3.4756374
0.22575302 -2.4355338 -5.6290345 -1.3929672 -0.78851503 0.046232916 -1.2216774 -2.3246899
1.0002164 -3.1320863 -1.0251809 -0.9797122 -0.7271922 -4.086318 -10.946387 -2.573006
-0.9773329 -0.71574104 -3.542891 -0.62401617 -3.3615646 -1.8173715 -4.0280943 0.31548616
-1.4534438 -0.221039 -2.7432537 -1.0204659 -1.6755074 -5.1578116 -0.6523978 -1.2601582
1.8863229 -4.993431 -3.1812186 0.1964843 -1.616614 -2.0819519 -6.5420456 1.2424787
-0.83959776 0.013027234 -4.1713905 -0.4092809 -2.1325138 -4.132888 -3.4524562 -0.5531401
-0.57365364 0.12902136 -3.4137762 -2.186249 -1.798935 -2.5978706 0.34099537 -4.8141475
0.3571681 -1.6321831 -0.50409913 -3.8448045 -1.6214981 -2.6955097 1.0073925 -5.662463
-0.45920765 -0.21655892 -5.185232 -1.2121103 -0.1255469 -2.524988 -3.3249276 -5.936475
-2.4269562 0.257467 -6.4163246 -0.29574195 -0.2378956 -0.96954095 -1.4502614 -5.6493897
-1.58656 -1.4493203 -1.6454012 -0.3404722 -4.8172517 -0.5139165 -1.8430473 -0.15380968
-0.1767975 -3.644464 0.12756442 -4.954329 -3.8174148 -3.3359478 1.620324 2.068287
-0.36796838 -0.11754951 -5.884502 -0.41160566 -1.2040564 -1.7862704 -4.577996 -3.2421618
0.7392227 -3.3152018 -0.9913639 -0.37700614 -0.8555325 -7.2461996 -2.3109488 -1.7281053
2.339432 -2.7468536 -3.72033 -3.5872962 -1.2067801 -1.2495894 1.027386 -4.1982827
0.15810561 -1.3567733 -1.4713199 -3.837785 -2.3581398 -0.68985873 1.0148727 -5.6958604
-0.978681 -0.39963824 -2.5607395 -3.1394134 -2.9296222 -0.4379916 -0.24207772 -2.915782
2.017187 -3.3178105 -1.4584708 -9.328515 -1.9933621 -0.61328137 2.2676244 -4.1919975
-0.09276809 -1.7188573 -0.40491202 -2.367843 -4.087943 -1.7158805 -0.2300022 -1.3786671
-0.99116844 -1.017945 -2.2406957 -0.18196033 -5.3125515 -1.8431485 -1.1007458 0.16699268

l3.bias f4 [56]
00000000: a265 09bf d0b0 59c0 436c fec0 27d7 ddc0
00000010: 01cd 60bf ed04 30c1 4bf7 36c1 56ab aebf
00000020: 430e f6bf b967 4cc0 7856 bcbf e57d f7bf
00000030: d639 98bf 27fc b4c0 d854 34be 4d89 1cc0
00000040: 6f6f 11c0 2927 14c0 d00b ccbf 207c a9c0
00000050: ce5b c6bf cdad 30c0 c968 45bf c50f 90bf
00000060: a12c 54bd 1fbd aa3d 5390 5fc0 5a4f a5c0
00000070: a3e9 aabf be4b 00c1 c2a2 70bf da30 d7bd
00000080: c430 1ebf 12a2 a3bf a4f9 28c0 75cd b4c0
00000090: 2c0e f8c0 9728 eebf 03a4 40c0 75da 69c0
000000a0: 6866 80c0 0858 d5bf ea75 bfbe f468 15bf
000000b0: 83f6 77c0 4e59 7a3e e905 9abd 28a3 b4c0
000000c0: 0e44 c0c0 d64b 28c0 75c1 41c0 101b c3c0
000000d0: 3b4d a7bf 52a3 85bf d26d 52bf 0c41 b4c0
-0.53670704 -3.4014168 -7.9507155 -6.9325137 -0.8781281 -11.001203 -11.435374 -1.3646038
-1.9223102 -3.1938307 -1.4713888 -1.9335295 -1.189265 -5.6557803 -0.1761049 -2.4458802
-2.2724264 -2.3148901 -1.5941105 -5.296402 -1.5496767 -2.760608 -0.77113014 -1.1254812
-0.051800374 0.08336853 -3.4931839 -5.1659365 -1.335255 -8.018492 -0.9399835 -0.105073646
-0.6179316 -1.2783835 -2.6402369 -5.65008 -7.75173 -1.8606137 -3.0100105 -3.6539586
-4.012501 -1.666749 -0.3739465 -0.5836327 -3.874421 0.2444813 -0.075206585 -5.6449165
-6.0083075 -2.6296287 -3.0274327 -6.0970535 -1.3070444 -1.0440466 -0.8219882 -5.6329403
